examples/cli/onnx/hello_world.onnx (onnx, 466 bytes, 2 tensors)

fc.bias f4 [5]
000000 0f 7d 77 3e 91 4e 67 bc 75 15 4e be 00 04 3c 3e
       0.241688 -0.014117853 -0.20125373 0.18360901
000010 df a4 bf 3d
       0.093576185

onnx::MatMul_6 f4 [11, 5]
000000 17 16 1f 3e 77 b2 73 3c f5 00 4f bd e2 a7 8c be
       0.1553577 0.014874092 -0.050538022 -0.27471834
000010 54 a7 22 be 44 46 08 be d3 86 e1 3d e8 2c 05 be
       -0.15884143 -0.13308054 0.11012044 -0.13005412
000020 a9 c7 92 be 6b b3 1e 3e c6 6a 6f bd 76 a3 f0 bd
       -0.28667954 0.1549813 -0.058451436 -0.11749928
000030 1c e0 c5 bd 3c eb 14 be b3 e3 23 be a2 ea 10 3e
       -0.09661886 -0.1454286 -0.16004829 0.14152005
000040 50 15 b4 bc 86 88 6c 3c b5 8e 87 3e b6 9b b5 3d
       -0.021982819 0.014436847 0.26476064 0.0886759
000050 4d 55 91 be a5 5d de bc 93 0d 38 3e 0c b6 4d bd
       -0.28385392 -0.027144263 0.17973928 -0.05022244
000060 63 4e b2 bd 49 29 39 3e 20 01 33 3d ce d0 27 3e
       -0.08706357 0.18082155 0.043702245 0.16388246
000070 a7 21 04 3e bf 65 07 bd 9d 11 7e bd c9 df 9d ba
       0.12903462 -0.033056017 -0.062028516 -0.0012044843
000080 83 e8 96 be 82 7a 0f be c4 69 94 be ce 12 1d 3e
       -0.29474267 -0.14011577 -0.28986943 0.15339205
000090 cd f2 86 3e 23 66 3f 3e 70 79 97 3e 89 34 13 be
       0.26357117 0.18691306 0.29584837 -0.1437551
0000a0 45 af 2b 3d 8e 28 c0 3d 80 81 ac 3d 71 a1 02 be
       0.041915197 0.09382735 0.08423138 -0.12756898
0000b0 76 89 27 3e a5 37 17 bd 86 f5 e5 bd a0 6e 92 3e
       0.16361031 -0.0369183 -0.112284705 0.28600025
0000c0 99 89 67 3e 5c 19 96 bd e0 44 ab 3d bd 78 3a be
       0.22611083 -0.07329056 0.08362746 -0.1821012
0000d0 ba ca 4b 3e 42 fd 69 3b 93 c3 99 3e
       0.19901553 0.0035703932 0.30032024
